Scripts/CameraParams.npz (npz, 2410 bytes, 4 tensors)

cameraMatrix f8 [3, 3]
0	0x40a10b81d1553566	2181.753550207871
1	0x0000000000000000	0.0
2	0x4092358212b586ea	1165.377024494514
3	0x0000000000000000	0.0
4	0x40a28405877dc716	2370.0107993417287
5	0x4091362a8ea511f2	1101.5415597717479
6	0x0000000000000000	0.0
7	0x0000000000000000	0.0
8	0x3ff0000000000000	1.0

dist f8 [1, 5]
0	0xbfb1e0859e302725	-0.06983218299879164
1	0x3fd5f10223f0d063	0.3428349829657746
2	0x3f8270a85f49021b	0.00900394001757925
3	0x3f76c59d1b486fed	0.00555955285792818
4	0xbfb70f673ffcb0ef	-0.09007878601250117

rvecs f8 [27, 3, 1]
0	0x3fd36476039b53f3	0.3030066523763814
1	0xbfab51a80289a61f	-0.053357363042618504
2	0xbf6ea26965ca89d5	-0.0037395533129977823
3	0x3fd75eb94adb2c2e	0.3651564818398495
4	0xbfac1fb1d570b748	-0.0549293110892522
5	0xbf8a00991a1f0ffb	-0.01269645319906231
6	0x3fd272a989e57293	0.28824842897828623
7	0xbfb78c72186915c1	-0.09198678108176407
8	0xbf953fb1e2556ba8	-0.020750789107619433
9	0x3fcd21d0f681698c	0.22759449039842783
10	0xbfd3558f0a3a95c6	-0.30209709166441845
11	0x3f9ae2d6d571dfaf	0.026255947854650404
12	0x3fca62ff92d9c3e4	0.20614618940774598
13	0x3fca8322cc435e90	0.20712695096766653
14	0x3f7317ce82a71d69	0.004661375695327188
15	0x3fd1f2bc8511e426	0.28044045443636134
16	0xbfb0dbf09d1587c3	-0.06585601649342636
17	0xbf6c97f6f669bcce	-0.003490431164486197
18	0x3fd0fbbfbc235612	0.2653655373845548
19	0xbfc7b276df2404bb	-0.1851337995104013
20	0x3f78aa4ddeb2578c	0.006021789721804793
21	0x3fd38876f1d21ff7	0.30520413985550426
22	0xbfab4507146e3c3c	-0.05326101421734861
23	0xbf86ae1adf11640d	-0.011074266369336195
24	0x3fd2330604233581	0.2843642273336045
25	0x3fabbe14f346d49c	0.05418458432851844
26	0xbfa0a93f14e8f8e6	-0.03254124765634163
27	0x3fd34ab5bb8341f6	0.3014349299601514
28	0xbfa9f63b7fd2e552	-0.050706729272358544
29	0xbf71ca415b4dae80	-0.004343276309423438
30	0x3fd40bccc4b410a0	0.3132202073031838
31	0xbfaf59d8e2118bb6	-0.061232354732758607
32	0xbf9616d9307128a6	-0.021571534711519867
33	0x3fd3f6dc4c9c9fe0	0.31194217187521467
34	0xbfa9a2de64870234	-0.05007071473255956
35	0xbf812b8a389c93f3	-0.008383827068948668
36	0x3fe2a6f87dd9dd04	0.5828821619060425
37	0xbfa87c19774d33e3	-0.047821803868465705
38	0xbf8f43854b417839	-0.015265504225848147
39	0x3fdb9f6cbbf19676	0.4316055140865055
40	0xbfa66088957b7227	-0.04370524239286438
41	0xbf91f1888a2964d5	-0.017522939141007072
42	0x3fd12224b83ae7eb	0.2677089499589999
43	0x3f9bc87f159f5231	0.027132020659182913
44	0xbf9c8166e8fd8442	-0.027837379427527738
45	0x3fd27b4c65082a09	0.28877553812404294
46	0xbf780d45d11c0d82	-0.005872032854088773
47	0xbf834a72f1f33ca7	-0.009419343956692151
48	0x3fce3dc1bb20e506	0.236259666797004
49	0x3fc1c1f1d53daf57	0.13873122131496515
50	0x3f936ed8e4656363	0.018977536144436324
51	0x3fd8fb50747415fa	0.3903390061608146
52	0xbfa4e577291e95e0	-0.04081318261095723
53	0xbf94050eceff0034	-0.019550544151343455
54	0x3fd2d5c3a0b174d0	0.294297129561369
55	0xbfaf8a5106c9da31	-0.06160214622370964
56	0x3f3f963a1c0419e5	0.0004819766873115624
57	0x3fd015442a55bf5b	0.25129799017212456
58	0xbfc5d90800be8728	-0.17068576847400974
59	0x3fa812edff34d6d0	0.047019421961903896
60	0x3fc902aaecf4de40	0.19539391107695003
61	0xbfb5fe192a7d7813	-0.08590848243099485
62	0xbfa336d76f1ed2ce	-0.03752778274011846
63	0x3fd46fdedbaa798f	0.31932803584813824
64	0xbfa94470e58318a7	-0.049350288406956815
65	0xbf9468b5c2b4615d	-0.01993068695910104
66	0x3fcb69c969dcf43d	0.21416585606667296
67	0xbfb05ee410370234	-0.06394791980620412
68	0xbf9ace66fc4142f8	-0.026177987238329842
69	0x3fd1c9cfad9379d5	0.27794258070744365
70	0xbfb5fe138a862742	-0.08590814716276632
71	0x3f90c23d03d0a238	0.01636596046242486
72	0x3fd7cefcd4156e01	0.3720085211877802
73	0xbfab38a7420f8608	-0.05316660577205928
74	0xbf85e564a5a61b3d	-0.010691438965989892
75	0x3fcd0616a724ed85	0.2267483059057264
76	0xbfd28cd5a323d29c	-0.2898458569682505
77	0x3f952838ddcadd55	0.020661247765670982
78	0x3fd1c016a04e0a0b	0.27734914450425724
79	0xbfb833b6dcd7ebf6	-0.09453909770665789
80	0x3f8e3df461025313	0.014766606531603032

tvecs f8 [27, 3, 1]
0	0xc00feaaa79783ca0	-3.9895829667871823
1	0xbfee9be97e575ed6	-0.9565322368243538
2	0x4023216f9893d66b	9.56530453495653
3	0xc011f7f1b2c2ff82	-4.49213294329809
4	0xbfe6e50141075671	-0.7154546995249814
5	0x40263e8eee4ca0be	11.122184225896827
6	0xc01270ac381dfa72	-4.610031964139681
7	0xbfeca3e5cdd1bdfd	-0.895007040015059
8	0x40250ab35e1673ac	10.520899715653137
9	0xc0095eedb479d68a	-3.1713518237764378
10	0xbfe74a164d8a7110	-0.7277938379734525
11	0x4024c94b1b6ff84e	10.393151147287565
12	0xc0171ea5bd0ba573	-5.779929117046197
13	0xbfff2e407dc71347	-1.9487919724644642
14	0x402a876cd6d64c10	13.264502252253834
15	0xc010f54f2edfd924	-4.23955987206708
16	0xc00502fb662020f8	-2.6264560679011275
17	0x4023f70ef6749934	9.982536031468591
18	0xc00d4e7092f3704f	-3.663300655416641
19	0xbfe86497dc939fe9	-0.7622794445169322
20	0x402480507cf13246	10.25061407512943
21	0xc01301264cda1a73	-4.751122666179628
22	0xbfca7bdabaf03d35	-0.20690473678448887
23	0x4021fc37a9d4026e	8.992612177972855
24	0xc01665bd29c540e8	-5.599354412712479
25	0xbffde4273490a143	-1.8682014516180778
26	0x4026d8042453d80b	11.421906600222448
27	0xc011a7032622338f	-4.413097949826706
28	0x3ff449db8cc281e9	1.2680316446713908
29	0x4028674f2a2338a9	12.201775852965811
30	0xc00fa19bbf1af5ab	-3.9539103441336088
31	0xbff040b6c9b11934	-1.0157993200860576
32	0x40263f39ae0c193f	11.123486937500841
33	0xc010194262af3cd3	-4.024667303033499
34	0x3f88a24b14b9ab00	0.012028299875245008
35	0x4027f0524119e36f	11.969377550516326
36	0xc01159df45a92a2d	-4.337765778017041
37	0x4002bf3cdabab07f	2.3433777893279166
38	0x4024ad0c2a4837ad	10.337983437839137
39	0xc01099799e8c5eea	-4.149878003423263
40	0x3febbb3366ae7a00	0.8666016583918577
41	0x40227a4982600480	9.238842081280609
42	0xc01442c08d0de5a3	-5.065187648747641
43	0xbffa24a6fc81afa4	-1.6339483130968597
44	0x40249ee310f0590f	10.310326127375928
45	0xc013de940b499a92	-4.96736161839239
46	0xbff4e04555b1352b	-1.3047536227562186
47	0x4025dcd53374ebcc	10.931314094565003
48	0xc016067ecfb85bf5	-5.506343122126954
49	0xbffe2a8216deed6b	-1.8853779691115402
50	0x4029eb0577e1f0e4	12.959026094752012
51	0xc010c9d63d6a69f7	-4.197106322879782
52	0xbfd1e938fc54f9c3	-0.27985977784910804
53	0x40218631663276e3	8.762095636043744
54	0xc010ca58563d2804	-4.1976026034190035
55	0xbffb7817db671e71	-1.7168196268484304
56	0x4023c54fa5410e57	9.88537327212468
57	0xc00a84902c6ae0de	-3.3147281141392417
58	0xc000db1b8e16a312	-2.106986150804354
59	0x4021fe3cda9fc9fb	8.996558029180042
60	0xc01252567b0ed31b	-4.580408022670578
61	0xc010e2e7e0fc86fe	-4.221587672627491
62	0x4024dececbca9b5b	10.435171478731425
63	0xc00cf37f3e262d5e	-3.6188950400734674
64	0xbfd4c5b2d0c5e1fa	-0.32456655872331874
65	0x402808b0c89d7735	12.016973752233392
66	0xc0115ecf4a627638	-4.342587625751143
67	0xc007aca33fce3cd2	-2.9592957482160296
68	0x40254fd72ac5eab3	10.655938469562306
69	0xc0118b8975612c51	-4.38626655011747
70	0xbffc3390ea5cd774	-1.7625893740455156
71	0x4022a2c80c7b63b9	9.317932500898552
72	0xc01131f37aa61936	-4.2987803615454165
73	0xbfe188ea18f555fc	-0.5479631888835566
74	0x402690d1d4a1a07a	11.28285088036522
75	0xc00ca16c1b2e1b63	-3.5788194774099096
76	0xbfe4d9dd192e266c	-0.6515946857263777
77	0x40255f0776d93438	10.685603822721632
78	0xc010b4350c19e6bf	-4.17598360927667
79	0xbffd75c5a2b6502a	-1.8412529331153658
80	0x402268ae4b9247f2	9.20445476685197
